models/model.pth (torch, 408531 bytes, 4 tensors)

1.weight f4 [128, 784]
-0.02896292 -0.007704335 0.0321204 0.00033509306 0.0021602854 0.012461173 0.01364588 0.0032688424
0.0013177736 0.013888432 -0.012327177 0.030201066 -0.038463537 0.0074973768 -5.4957356e-05 0.04593925
0.007814472 0.0038046243 -0.009693316 -0.00067901186 0.03439031 0.012852346 -0.020880552 0.034778334
-0.01939551 -0.025235953 -0.020221094 0.025749238 0.024917174 0.02799494 -0.034535844 0.005635517
-0.0025374023 0.00857071 0.006610955 -0.019606903 -0.0014888375 0.010176286 -0.03533086 -0.016125541
-0.073544525 0.07135092 0.08600992 0.09486945 0.13788591 -0.0030955833 -0.08012056 -0.08614002
0.088171884 0.036753573 0.010078873 -0.0009873298 0.011704007 0.012562982 0.032407887 -0.009274411
0.027066892 0.027190065 -0.018688507 0.037781004 0.0063851476 -0.0060839946 -0.03488208 -0.023163473
-0.059645507 -0.048737545 -0.00950163 0.077932335 0.12595971 0.15802045 0.16846898 0.14758846
0.17444986 0.06839226 0.03708299 -0.03242731 0.018496498 0.014376105 -0.039601225 -0.023222571
0.030249314 0.058573883 0.012383419 -0.007620173 -0.025578449 -0.018224725 0.09405031 0.07806548
-0.052639715 -0.09667888 -0.038012173 0.05731591 0.053258028 0.024329085 0.06229389 0.17032981
0.26542023 0.33223233 0.17482294 0.21435931 0.31001085 0.15104154 0.009989991 0.037044775
-0.01031116 -0.12321853 -0.28170052 -0.17883073 0.05742108 0.02151348 -0.15024015 0.029094731
0.01063926 -0.012061405 0.05422279 0.10220772 0.03451424 0.023359345 0.052912273 0.106206685
0.16590595 0.14539585 0.1800505 0.089266896 0.15513188 0.16918004 0.14689262 0.22264998
0.2360946 0.14746316 0.09481234 0.08776245 0.061267763 -0.021100452 -0.04526573 -0.13998152
-0.08616779 -0.19174288 -0.15987208 -0.07130716 -0.0019290107 0.029527716 0.03440237 0.0599821
0.05468148 0.09827909 0.027164452 0.00787807 0.016790204 0.0011411557 0.041639023 -0.07239679
-0.046848815 -0.05408743 0.0047755367 0.13370024 0.14301637 0.13421969 0.09478135 0.06557157
-0.052569453 -0.017108751 0.044052158 -0.13315542 -0.07988542 -0.25742227 -0.14703315 -0.07496508
-0.004727279 0.09280696 0.052722603 0.047767766 0.079589315 0.12020936 0.06772395 -0.04017443
0.012347386 -0.022078367 -0.0030139065 -0.012065401 -0.045162164 0.04743978 0.118518025 0.064833395
0.1694907 0.101301916 0.12694933 -0.0010566486 0.026632842 0.03172535 0.050142832 -0.03442783
-0.18100007 -0.2253988 -0.090947606 0.005624926 -0.02206967 0.13601525 0.040440675 0.057759486
0.13508533 0.082733 0.10887504 0.09006412 -0.015823048 0.03591595 -0.03624905 0.053600162
0.09964927 0.13912399 0.14784758 0.12534787 0.13978611 0.09471614 0.07272934 0.05380554
0.051317666 0.00013487348 0.09357307 -0.07267857 -0.27346048 -0.27221653 -0.10668262 -0.05690045
0.025537059 0.07031522 0.0586421 0.14119568 0.10748584 0.049574032 0.03244474 0.0026143992
-0.038655803 -0.054972187 -0.0056402343 0.034942202 -0.03124997 -0.031889077 0.04682888 0.14622857
0.24027319 0.18940286 0.15280409 0.06312788 0.025101855 0.043077327 0.06260175 -0.09503162
-0.29448387 -0.35936525 -0.13645203 -0.011892662 -0.02740401 0.024103837 0.07780541 0.058888387
00000000: a543 edbc a574 fcbb ae90 033d 6eaf af39
00000010: 9393 0d3b f329 4c3c f892 5f3c 133a 563b
00000020: 25b9 ac3a 4e8c 633c eef7 49bc 3a68 f73c
00000030: f18b 1dbd 8eac f53b 0382 66b8 cc2a 3c3d
00000040: 4508 003c 0157 793b b7d0 1ebc b7ff 31ba
00000050: dbdc 0c3d a592 523c b10d abbc ba73 0e3d
00000060: 55e3 9ebc a1bb cebc b5a6 a5bc 11f0 d23c
00000070: 1a1f cc3c a555 e53c 7575 0dbd 25aa b83b
00000080: 8c4a 26bb 2a6c 0c3c b6a0 d83b a89e a0bc
00000090: 1925 c3ba 70ba 263c 18b7 10bd b619 84bc
000000a0: 839e 96bd 6e20 923d f825 b03d ea4a c23d
000000b0: f731 0d3e 45df 4abb 4016 a4bd 2e6a b0bd
000000c0: 7693 b43d ea8a 163d db21 253c 4a69 81ba
000000d0: 2ac2 3f3c f7d4 4d3c 22be 043d b3f3 17bc
000000e0: 63bb dd3c b3bd de3c a418 99bc 41c0 1a3d
000000f0: 803a d13b 3f5c c7bb 83e0 0ebd 53c1 bdbc
00000100: d94e 74bd 05a1 47bd baac 1bbc fd9a 9f3d
00000110: 95fb 003e 1dd0 213e 2283 2c3e 6e21 173e
00000120: fca2 323e 3e11 8c3d 55e4 173d 80d2 04bd
00000130: f885 973c c189 6b3c e534 22bd 433d bebc
00000140: 69cd f73c 2beb 6f3d d3e3 4a3c a5b2 f9bb
00000150: e589 d1bc 054c 95bc 739d c03d cbe0 9f3d
00000160: be9c 57bd 94ff c5bd a7b2 1bbd 16c4 6a3d
00000170: 1725 5a3d ca4d c73c e127 7f3d f06a 2e3e
00000180: 29e5 873e 5b1a aa3e c904 333e 0281 5b3e
00000190: beb9 9e3e a2aa 1a3e 0fad 233c 43bc 173d
000001a0: 24f0 28bc ff59 fcbd 0d3b 90be 671f 37be
000001b0: 5e32 6b3d 0a3d b03c 8ed8 19be 1358 ee3c
000001c0: 4a50 2e3c 339d 45bc b718 5e3d 4852 d13d
000001d0: ce5e 0d3d 195c bf3c 8aba 583d e482 d93d
000001e0: 40e3 293e a6e2 143e 295f 383e 90d1 b63d
000001f0: e4da 1e3e 883d 2d3e 056b 163e 5bfe 633e
00000200: c8c2 713e 9500 173e f92c c23d cdbc b33d
00000210: e8f3 7a3d dbda acbc 8f68 39bd 5157 0fbe
00000220: bd78 b0bd 3f58 44be 82b5 23be 7d09 92bd
00000230: dcd6 fcba 1ce4 f13c 80e9 0c3d caaf 753d
00000240: b0f9 5f3d 8c46 c93d fc87 de3c 0513 013c
00000250: 9c8b 893c d592 953a ae8d 2a3d c544 94bd
00000260: 8be4 3fbd c88a 5dbd 1b7c 9c3b b7e8 083e
00000270: e272 123e e370 093e b91c c23d 634a 863d
00000280: 1153 57bd a727 8cbc 0970 343d e559 08be
00000290: f89a a3bd dacc 83be dc8f 16be 4b87 99bd
000002a0: 4ae7 9abb 9311 be3d a8f3 573d 22a8 433d
000002b0: b9ff a23d 5330 f63d dbb2 8a3d f18d 24bd
000002c0: b14c 4a3c b1dd b4bc f684 45bb f6ad 45bc
000002d0: f6fb 38bd 3750 423d 94b9 f23d 5fc7 843d
000002e0: f88e 2d3e 6177 cf3d 01ff 013e 3e7f 8aba
000002f0: 1e2d da3c 71f2 013d 9262 4d3d 3204 0dbd
00000300: 1558 39be f1ce 66be bd42 babd 4d51 b83b
00000310: 74cb b4bc 9547 0b3e 1fa5 253d 3695 6c3d
00000320: cf53 0a3e eb6f a93d e1f9 de3d 8a73 b83d
00000330: 569f 81bc 9a1c 133d e279 14bd d88b 5b3d
00000340: eb14 cc3d 8576 0e3e 5b65 173e 315b 003e
00000350: 1724 0f3e 89fa c13d 1ff3 943d 3363 5c3d
00000360: 7932 523d d36c 0d39 3da3 bf3d 81d8 94bd
00000370: 0303 8cbe f75f 8bbe 6b7c dabd 7210 69bd
00000380: 1833 d13c 6d01 903d b332 703d 9a95 103e
00000390: 8921 dc3d 240e 4b3d c7e4 043d 5756 2b3b
000003a0: 8c55 1ebd 842a 61bd b7d1 b8bb 8e1f 0f3d
000003b0: f0ff ffbc 1f9e 02bd a4cf 3f3d f1bc 153e
000003c0: 2d0a 763e d3f2 413e ad78 1c3e 3149 813d
000003d0: 68a2 cd3c da71 303d 5935 803d f09f c2bd
000003e0: 97c6 96be b9fe b7be 15ba 0bbe 71d9 42bc
000003f0: 607e e0bc 6975 c53c 7158 9f3d f334 713d

1.bias f4 [128]
-0.060665168 0.03885506 0.095541924 0.07505823 0.031852752 0.11620699 0.06518892 -0.044154406
0.10715959 -0.057025168 -0.025803136 -0.03410391 0.0722164 0.013496332 -0.046454094 0.1602805
0.25564644 0.09237799 0.00053157425 0.019305943 -0.020387575 0.022748252 0.12949708 0.029478857
-0.0058032265 0.08797722 0.0075491797 -0.11784086 -0.04276902 -0.005628426 0.08766178 0.07110104
-0.015734155 -0.052616693 -0.007851452 0.13138492 -0.07021143 -0.034746934 -0.00092324085 -0.10325458
0.033836506 0.13109916 -0.074399285 -0.0058509978 0.02145679 0.030574063 0.08975641 -0.029599983
0.08324411 -0.031120604 0.02619194 -0.01879313 0.1305557 0.17141677 -0.070485935 -0.05287975
0.05005044 -0.12354371 -0.089890055 -0.011234026 0.050487388 -0.107307866 0.0069257156 -0.04367656
0.011443279 0.07687559 0.0064421687 -0.0015236203 0.017166832 -0.07369712 0.044861127 -0.08633138
0.0026079298 0.19602755 0.014672413 0.021687802 -0.052966528 0.15912826 -0.0008549741 -0.032317013
0.034471586 0.06678596 0.054777186 -0.089472145 -0.084597364 0.039945476 0.09753781 0.20968528
0.10299611 0.14290886 0.07307098 -0.12040906 -0.0039794813 -0.06777807 -0.033696774 0.11535534
-0.0072025857 0.21253516 -0.049551975 0.08027176 -0.011546239 0.123165354 0.0068478608 0.11650019
-0.035192043 0.07390665 -0.05597247 0.026003346 0.12153292 0.106823154 0.17497472 0.13385056
0.12870167 -0.009737741 0.13669369 0.046074577 -0.0056347162 0.046338383 -0.08088106 0.13019486
0.05610233 0.15500566 0.10335095 0.02921066 0.1025036 -0.060599595 0.114275746 0.01854885
00000000: 0a7c 78bd 7c26 1f3d 7cab c33d 21b8 993d
00000010: 0878 023d eefd ed3d c581 853d 40db 34bd
00000020: 7d76 db3d 3993 69bd 1961 d3bc 8bb0 0bbd
00000030: 31e6 933d b81f 5d3c a646 3ebd 9220 243e
00000040: 17e4 823e ac30 bd3d 5859 0b3a 7f27 9e3c
00000050: d803 a7bc 8b5a ba3c e29a 043e a57d f13c
00000060: fe28 bebb 672d b43d 1c5f f73b 8c56 f1bd
00000070: 912e 2fbd a96e b8bb 0588 b33d 6c9d 913d
00000080: eae4 80bc 9a84 57bd 60a3 00bc c589 063e
00000090: 03cb 8fbd cd52 0ebd a505 72ba 2377 d3bd
000000a0: 2698 0a3d dc3e 063e a75e 98bd bab9 bfbb
000000b0: 26c6 af3c 7576 fa3c 35d2 b73d aa7b f2bc
000000c0: e37b aa3d a3f0 febc 7b90 d63c 0df4 99bc
000000d0: 65b0 053e e187 2f3e ee5a 90bd 7098 58bd
000000e0: b101 4d3d 7c04 fdbd 4718 b8bd ec0e 38bc
000000f0: ddcb 4e3d 3ac4 dbbd 1df1 e23b 31e6 32bd
00000100: 977c 3b3c f370 9d3d d418 d33b 37b4 c7ba
00000110: 75a1 8c3c 84ee 96bd 4dc0 373d 82ce b0bd
00000120: cde9 2a3b 72bb 483e 8f64 703c 9eaa b13c
00000130: 6ef3 58bd 85f2 223e 5720 60ba d85e 04bd
00000140: 1432 0d3d 14c7 883d 0b5e 603d 2c3d b7bd
00000150: 6241 adbd de9d 233d e7c1 c73d bdb7 563e
00000160: a0ef d23d b356 123e 3da6 953d 0699 f6bd
00000170: 4f66 82bb 3bcf 8abd a105 0abd 6c3f ec3d
00000180: ab03 ecbb d1a2 593e 03f7 4abd 8565 a43d
00000190: 702c 3dbc 1e3e fc3d 0564 e03b a797 ee3d
000001a0: 8825 10bd 5f5c 973d 6443 65bd f804 d53c
000001b0: 40e6 f83d 19c6 da3d 932c 333e 1f10 093e
000001c0: 5fca 033e 0c8b 1fbc 6ef9 0b3e b2b8 3c3d
000001d0: 6da3 b8bb 51cd 3d3d f8a4 a5bd cd51 053e
000001e0: 8fcb 653d ceb9 1e3e aaa9 d33d 324b ef3c
000001f0: 68ed d13d 4837 78bd 6709 ea3d c2f3 973c

3.weight f4 [10, 128]
0.15890093 0.12761095 0.08181208 0.09842806 0.046558727 -0.3201964 0.100422494 -0.25584337
0.15595907 0.13386714 0.19769326 -0.19291498 -0.3166289 -0.039141286 0.086967304 -0.020287603
-0.10873449 -0.40349028 -0.16215795 0.08526305 -0.34294933 -0.09791064 -0.11305144 -0.2893285
0.08795122 0.0646719 -0.32098693 0.013929343 0.14100833 0.21867542 0.09904209 -0.39626387
-0.22907378 0.0026273872 0.08637499 0.07731728 0.15867841 -0.52400315 0.19976845 0.0016854017
-0.12620461 0.15647715 -0.049861427 0.086960785 0.042631406 -0.046802007 0.14872018 -0.0055853543
-0.1550936 -0.070581265 -0.49323913 0.011654456 -0.03507047 -0.09556022 0.13608897 -0.06566329
0.05699214 0.20365342 -0.02659 0.074125655 -0.16666193 0.079938605 0.1362303 0.15504141
0.1301623 -0.45326313 -0.4410752 -0.20604633 -0.035309784 -0.20522839 0.04456214 -0.5694157
0.04396382 -0.28617015 -0.06141171 -0.06631038 -0.26634496 -0.15314537 -0.1646157 0.038095366
-0.4669141 -0.0534986 -0.23965785 0.15866701 0.18301523 0.09760336 0.07494485 0.097493455
-0.30432922 -0.63012886 -0.08844619 0.21875027 0.103372365 0.13330767 -0.06508747 0.16702406
-0.043170463 -0.06777982 0.15249173 -0.24118908 0.13227619 -0.26154205 -0.20283264 0.23557596
-0.57805336 -0.1412277 -0.08895623 -0.16301604 -0.4099176 -0.120847635 -0.07373571 0.04007595
-0.25902754 0.20771104 0.20933515 -0.20561777 -0.07947909 -0.4634241 0.17447057 -0.41366276
-0.44642 -0.14672688 0.18816848 -0.3814876 0.15044619 -0.023002451 -0.31584102 0.14686386
0.17645894 0.060525548 -0.353629 0.54700404 0.13678849 0.07654001 -0.04764065 -0.03811173
-0.37231374 -0.28593433 -0.251951 0.13100949 0.09719506 0.05376174 0.033089284 -0.17891881
0.26465926 -0.23841125 0.034595765 -0.17660369 -0.07393084 0.06237976 -0.07725161 -0.015209268
-0.32432237 -0.31465593 0.123054676 -0.282477 -0.27204958 -0.09387427 -0.23933946 -0.35297394
0.10360101 -0.04456076 0.118246146 0.1317668 -0.11178572 0.13317887 0.074532904 0.011320218
0.17225058 -0.22767705 -0.0565149 0.1278533 -0.2007513 -0.2665251 0.5210444 -0.031803127
0.2586081 -0.1348005 0.0023131846 -0.009936636 -0.059094895 -0.24210021 0.10786879 -0.34496784
-0.22364353 -0.28301504 -0.22420296 -0.18400876 0.0992326 -0.07766028 0.098982304 0.16704008
-0.188499 0.1270929 0.057837088 0.15552002 -0.29003254 0.0844063 -0.08462459 -0.16180624
0.44138682 -0.2596531 -0.079739965 -0.064917006 0.025304595 0.47329044 0.1151124 -0.17224593
0.1671792 -0.32297885 -0.05499034 -0.057606045 0.079896025 0.10213345 0.0005498608 -0.30875707
0.1399548 0.103999466 -0.4958912 -0.23489545 -0.30122027 -0.0028128878 -0.20515534 -0.26534638
0.011369554 0.009899821 0.28656483 0.04170406 -0.3016402 -0.1411908 0.054365013 0.027348587
0.14826761 -0.16092378 -0.23286608 -0.20303854 0.09956707 -0.14199246 0.08110544 -0.49165317
-0.32019967 -0.12904711 -0.20305586 0.16497464 0.06948057 -0.1441036 -0.108985156 -0.024289152
-0.18074462 0.12617286 -0.1190354 0.10519054 0.27221352 0.072232306 0.060917556 -0.44316256
00000000: edb6 223e 72ac 023e 188d a73d a794 c93d
00000010: 5db4 3e3d c8f0 a3be 4faa cd3d e7fd 82be
00000020: bcb3 1f3e 7814 093e 1a70 4a3e 818b 45be
00000030: 2f1d a2be 9d52 20bd ea1b b23d 3032 a6bc
00000040: 30b0 debd 4796 cebe bc0c 26be 659e ae3d
00000050: 0e97 afbe 6085 c8bd 8387 e7bd dd22 94be
00000060: c51f b43d b372 843d 6658 a4be e637 643c
00000070: 7d64 103e 73ec 5f3e 94d6 ca3d 19e3 cabe
00000080: 5192 6abe 3e30 2c3b 5fe5 b03d 8658 9e3d
00000090: 987c 223e 1225 06bf 1a90 4c3e b2e8 dc3a
000000a0: c83b 01be 8c3b 203e 7f3b 4cbd 7f18 b23d
000000b0: 459e 2e3d 76b3 3fbd 1a4a 183e 5905 b7bb
000000c0: dbd0 1ebe e98c 90bd d789 fcbe 55f2 3e3c
000000d0: 0ea6 0fbd 14b5 c3bd e85a 0b3e 7a7a 86bd
000000e0: 9770 693d 868a 503e 46d3 d9bc 31cf 973d
000000f0: 6da9 2abe dab6 a33d f57f 0b3e 2dc3 1e3e
00000100: 4449 053e 1b12 e8be 9cd4 e1be cffd 52be
00000110: fea0 10bd 6427 52be ca86 363d 3ac5 11bf
00000120: 6813 343d e584 92be d88a 7bbd bdcd 87bd
00000130: 5e5e 88be 24d2 1cbe 0591 28be e309 1c3d
00000140: 5d0f efbe 5921 5bbd de68 75be 9b79 223e
00000150: 5868 3b3e 45e4 c73d af7c 993d a6aa c73d
00000160: 0ad1 9bbe 2050 21bf 4723 b5bd 1200 603e
00000170: e4b4 d33d ce81 083e 944c 85bd 5b08 2b3e
00000180: 83d3 30bd 25d0 8abd cb26 1c3e 45fa 76be
00000190: 6973 073e d7e8 85be 5cb3 4fbe d33a 713e
000001a0: 4efb 13bf ff9d 10be af2e b6bd aded 26be
000001b0: b8e0 d1be f77e f7bd bf02 97bd ae26 243d
000001c0: 429f 84be 34b2 543e f45b 563e 778d 52be
000001d0: efc5 a2bd ec45 edbe 6aa8 323e 9bcb d3be
000001e0: 2a91 e4be 923f 16be 3daf 403e 5852 c3be
000001f0: 910e 1a3e a36f bcbc eab5 a1be 7b63 163e
00000200: a7b1 343e a3e9 773d dc0e b5be 7508 0c3f
00000210: 4812 0c3e 02c1 9c3d d822 43bd 0c1b 1cbd
00000220: e89f bebe fc65 92be b9ff 80be 5a27 063e
00000230: 340e c73d 4535 5c3d a188 073d 7e36 37be
00000240: 6b81 873e 1422 74be 4ab4 0d3d 99d7 34be
00000250: 0d69 97bd eb81 7f3d 1836 9ebd 4b30 79bc
00000260: 950d a6be 951a a1be 1704 fc3d d3a0 90be
00000270: 154a 8bbe 2741 c0bd 6715 75be 00b9 b4be
00000280: c42c d43d 5885 36bd 092b f23d e0ed 063e
00000290: e9ef e4bd 0b60 083e b5a4 983d 7078 393c
000002a0: 7562 303e 2c24 69be 2b7c 67bd faeb 023e
000002b0: c091 4dbe fa75 88be 2a63 053f ff43 02bd
000002c0: 4868 843e 2409 0abe cc98 173b 46cd 22bc
000002d0: 7d0d 72bd 1ee9 77be 50ea dc3d a09f b0be
000002e0: cf02 65be 59e7 90be 7695 65be cb6c 3cbe
000002f0: 763a cb3d 5a0c 9fbd 3cb7 ca3d 8e0c 2b3e
00000300: e205 41be a424 023e 95e6 6c3d a440 1f3e
00000310: 257f 94be 36dd ac3d a84f adbd 89b0 25be
00000320: 74fd e13e 40f1 84be b54e a3bd 35f3 84bd
00000330: 954b cf3c 2053 f23e 0dc0 eb3d 3d61 30be
00000340: 0631 2b3e 7c5d a5be 8d3d 61bd 51f4 6bbd
00000350: 87a0 a33d 582b d13d 8924 103a 6815 9ebe
00000360: 5050 0f3e acfd d43d 74e5 fdbe 6f88 70be
00000370: 8b39 9abe 6d58 38bb 3e14 52be 7bdb 87be
00000380: 5e47 3a3c dc32 223c a0b8 923e e0d1 2a3d
00000390: 9670 9abe 5294 10be d9ad 5e3d 250a e03c
000003a0: 77d3 173e 34c9 24be 7274 6ebe 56e9 4fbe
000003b0: d2e9 cb3d 7966 11be 9c1a a63d f7b9 fbbe
000003c0: 36f1 a3be ed24 04be e0ed 4fbe 1def 283e
000003d0: d44b 8e3d e58f 13be 9c33 dfbd 0bfa c6bc
000003e0: 1e15 39be 7533 013e d5c8 f3bd 236e d73d
000003f0: 925f 8b3e 88ee 933d b084 793d 34e6 e2be

3.bias f4 [10]
-0.031204805 -0.08654853 0.078928836 -0.16145597 0.104140036 0.17351486 -0.03057033 -0.047399163
-0.04561531 -0.10924408
00000000: 38a1 ffbc 5b40 b1bd 71a5 a13d b754 25be
00000010: 5f47 d53d e1ad 313e a16e fabc a025 42bd
00000020: 1fd7 3abd 5cbb dfbd
